pretrained_convnet.pt (torch_old, 242010 bytes, 10 tensors)

0.weight f4 [6, 1, 3, 3]
0	0x3ecfd09d	0.40588847
1	0xbed167ee	-0.40899605
2	0xbe8704e3	-0.26370916
3	0x3ed496d0	0.4152131
4	0xbe8da87d	-0.2766761
5	0xbdc7d0a9	-0.09756596
6	0x3ecdb0be	0.40173906
7	0xbed80ad6	-0.42195767
8	0x3e9b03c7	0.3027632
9	0xbe2b78ce	-0.16745302
10	0x3e010cb2	0.12602499
11	0xbe2e1ad2	-0.17002419
12	0x3eb9ace8	0.3626473
13	0x3e970e1d	0.29502955
14	0x3e9efba2	0.31051356
15	0x3ea4dfa6	0.3220188
16	0x3e2ca55b	0.16859953
17	0x3eb2fa52	0.34956604
18	0xbf90e30c	-1.1319289
19	0xbe9acad9	-0.30232885
20	0x3d669f96	0.056304537
21	0xbfb4e484	-1.4132237
22	0xbe620ce8	-0.22075236
23	0x3e843f00	0.25829315
24	0xbea6eaca	-0.32601005
25	0x3dc6f944	0.097155124
26	0xbcf27d53	-0.029600775
27	0x3ee402f6	0.4453351
28	0x3ef703e3	0.48245153
29	0xbe98c7eb	-0.29840025
30	0x3e39806b	0.18115394
31	0x3dab31b0	0.083590865
32	0xbe33b859	-0.17550792
33	0x3db408bc	0.087907284
34	0xbe97a7f2	-0.2962032
35	0x3e6f817e	0.23389241
36	0xbd885491	-0.06656755
37	0xbe960776	-0.29302567
38	0xbf9526c5	-1.1652457
39	0x3ea3540b	0.31900057
40	0x3dc1c655	0.09461657
41	0xbf03e097	-0.5151457
42	0x3daa8a29	0.08327133
43	0x3dd77bbe	0.10521649
44	0x3e602d90	0.2189238
45	0x3e90b14f	0.28260276
46	0x3f03e2c7	0.5151791
47	0x3e8dc1e9	0.27687004
48	0xbe9f7c9d	-0.3114976
49	0x3ef39737	0.47576305
50	0x3ec94cfe	0.39316553
51	0x3cf54a21	0.029942574
52	0x3ed87151	0.42273954
53	0x3e7dfbd4	0.24803096

0.bias f4 [6]
0	0x3a3aa548	0.0007119966
1	0xb7e92024	-2.7790731e-05
2	0x3ea37878	0.31927848
3	0xbbf9263d	-0.0076034353
4	0x3df9bf89	0.121947356
5	0xb9a1b2b5	-0.0003084146

3.weight f4 [16, 6, 3, 3]
0	0xbc828690	-0.015933305
1	0x3cf97e5d	0.030455763
2	0x3e779bd8	0.24180543
3	0x3ec958ef	0.39325663
4	0x3de76357	0.112982444
5	0xbca8119d	-0.020516211
6	0x3e02ee1d	0.12786146
7	0x3d407720	0.046988606
8	0x3cd68af9	0.026189314
9	0x3ccaeb1b	0.02477031
10	0x3da7c5db	0.08192035
11	0xbe098126	-0.13428172
12	0x3d15274d	0.036414433
13	0x3e236676	0.15957054
14	0x3d54e680	0.051977634
15	0xbce50c42	-0.027959947
16	0x3e36849f	0.17824028
17	0x3e346340	0.17615986
18	0xbd34c609	-0.044134174
19	0xbe13c01e	-0.14428756
20	0xbe228414	-0.15870696
21	0x3d25f10a	0.040513076
22	0xbe272fe5	-0.16326864
23	0xbe8dae31	-0.2767196
24	0x3d001e85	0.031279106
25	0xbe84d39f	-0.25942704
26	0xbd94dd90	-0.07268822
27	0xbd96acb4	-0.07357159
28	0xbe1939be	-0.14963433
29	0xbbbe21b7	-0.005802359
30	0x3e6dd3b4	0.2322529
31	0x3e2e8280	0.1704197
32	0xbe34408c	-0.17602748
33	0x3d547862	0.05187262
34	0xbd585cdc	-0.052822933
35	0x3dc96c9e	0.0983517
36	0xbdb5b600	-0.08872604
37	0xbe8f6890	-0.28009462
38	0x3e253623	0.16133933
39	0xbd7f9fa7	-0.062408116
40	0xbe0f960d	-0.14022084
41	0xbdc3dbcc	-0.09563407
42	0xbe061dbd	-0.13097282
43	0xbdf218f2	-0.11821164
44	0xbe951755	-0.29119363
45	0xbde54d5e	-0.11196397
46	0xbe2a061b	-0.16603892
47	0x3d07ba8c	0.03313689
48	0xbd8b85bb	-0.068126164
49	0xbe1aee96	-0.15130076
50	0x3dc97b5a	0.098379806
51	0xbc6db7a9	-0.01450912
52	0xbda3107d	-0.07962129
53	0x3d72422f	0.05914515
54	0x3e47258b	0.19447915
55	0xbe6f14fd	-0.2334785
56	0x3dfe2bef	0.124107234
57	0xbd528935	-0.051400382
58	0x3e3fb35a	0.18720761
59	0xbe665ced	-0.22496386
60	0x3e219cb4	0.15782434
61	0x3eb44f9b	0.35216984
62	0xbe3463ec	-0.17616242
63	0x3d50ce64	0.05097808
64	0xbdce735e	-0.10080598
65	0x3d3336e1	0.04375351
66	0xbde15379	-0.11002249
67	0xbe054b00	-0.13016891
68	0xbd6273f0	-0.055286348
69	0x3e1991dc	0.14997047
70	0xbdbb1e70	-0.09136665
71	0xbe875bde	-0.26437277
72	0x3c30b8e2	0.010786267
73	0x3ec069fe	0.37580866
74	0xbd8610e3	-0.0654619
75	0xbcc8ea8c	-0.024525903
76	0x3dd5929c	0.10428354
77	0x3eb39f75	0.35082594
78	0xbdb911e9	-0.09036619
79	0xbc500345	-0.012696092
80	0x3e8c0375	0.27346388
81	0xbe250ddc	-0.16118568
82	0x3d74addf	0.05973613
83	0x3dbd559c	0.09244844
84	0x3e0bd0e0	0.13653898
85	0xbd54d161	-0.05195749
86	0x3e1dcc34	0.15409929
87	0x3e1ed1ef	0.15509771
88	0x3d405865	0.0469593
89	0xbd82f8c0	-0.063951015
90	0x3ea9254a	0.33036262
91	0xbe5e5b54	-0.21714526
92	0xbca04461	-0.019563856
93	0xbd06e9d2	-0.032937832
94	0xbd381e9e	-0.044951074
95	0xbe2cddb1	-0.16881444
96	0x3e0b57b6	0.13607678
97	0x3eb216b5	0.3478295
98	0x3bb673c3	0.005567999
99	0xbdf13768	-0.11778146
100	0xbd91c4cb	-0.071176134
101	0x3e77af2c	0.24187917
102	0xbd5a74dd	-0.053334106
103	0xbcc1a5e4	-0.023638673
104	0x3e0a261d	0.13491102
105	0xbbf753e3	-0.007547842
106	0xbd5fcee9	-0.054640684
107	0x3cd7b406	0.026330959
108	0x3f3cd1f2	0.7375785
109	0x3e4336a8	0.19063818
110	0x3deea385	0.116522826
111	0x3e2e9072	0.17047289
112	0x3e677aaa	0.22605386
113	0x3e70e763	0.23525767
114	0xbe7ffa44	-0.24997813
115	0x3dda2c50	0.10652983
116	0x3a9181d9	0.001110132
117	0x3dcdfedf	0.100583784
118	0xbdfaa358	-0.122381866
119	0x3d95d322	0.07315661
120	0x3cb45ca3	0.022016829
121	0x3e1231fd	0.14276882
122	0x3e2afddf	0.16698407
123	0xbd6a4445	-0.057194013
124	0x3cec6226	0.028855395
125	0xbd1e8961	-0.038705233
126	0xbd117081	-0.035507683
127	0x3e859928	0.2609341
128	0x3dcceb9b	0.10005876
129	0xbe5c2633	-0.21498947
130	0xbe11486a	-0.1418778
131	0xbd7fa8ea	-0.06241695
132	0xbd2dc19b	-0.042420965
133	0xbea1e18f	-0.316174
134	0xbc66abf6	-0.014079085
135	0x3e181f83	0.14855771
136	0xbe424e91	-0.18975283
137	0xbdcf4542	-0.10120632
138	0x3e6b8fdd	0.23004098
139	0x3d40f336	0.047106944
140	0x3ca6c54d	0.020357752
141	0x3dd5e08b	0.10443219
142	0x3d2f9598	0.042867273
143	0xbd81a06d	-0.06329427
144	0x3f382582	0.7193223
145	0x3e545515	0.20735581
146	0x3d9e018c	0.07715139
147	0x3ea0f993	0.3144041
148	0xbc8d07a5	-0.01721556
149	0xbb19f0ab	-0.0023489397
150	0xbe3d2327	-0.18470441
151	0x3e178594	0.1479705
152	0xbe8bbb9e	-0.27291578
153	0xbe5794ef	-0.21052907
154	0xbe54f006	-0.20794687
155	0xbdd3974a	-0.103315905
156	0x3e2a05a1	0.1660371
157	0xbd8d1bc3	-0.06890061
158	0xbcbb9df6	-0.02290247
159	0x3b750d60	0.0037392005
160	0x3d4eebcc	0.050517842
161	0xbd4f5fdc	-0.050628528
162	0xbe95451c	-0.2915429
163	0x3e8431c6	0.25819224
164	0xbddcd5fd	-0.107830025
165	0xbe8ec630	-0.2788558
166	0x3e922584	0.28544247
167	0x3e821163	0.2540389
168	0xbeeef10d	-0.46668282
169	0x3e79f385	0.24409302
170	0x3ea11f19	0.31469038
171	0xbc715418	-0.014729522
172	0xbd6bbc17	-0.057552423
173	0xbde36a83	-0.111043
174	0x3df46a7f	0.11934375
175	0x3dced80a	0.100998
176	0x3cbbd352	0.022927914
177	0xbb2851e4	-0.0025683576
178	0x3e330aae	0.17484543
179	0x3da98326	0.08276968
180	0x3dea9fa6	0.11456232
181	0xbd3a4953	-0.045480084
182	0xbe8c2446	-0.27371424
183	0x3e1e109c	0.15436023
184	0xbe8d8a75	-0.27644697
185	0xbe1b0abd	-0.15140815
186	0x3e5b57a2	0.21420148
187	0xbe8502bc	-0.2597865
188	0xbc412a10	-0.011789814
189	0xbe460d29	-0.19340958
190	0xbdc7860d	-0.09742365
191	0xbd861812	-0.0654756
192	0xbe20c3c9	-0.15699686
193	0xbe186edc	-0.1488604
194	0xbe139cf0	-0.14415336
195	0xbe1f4df7	-0.15557085
196	0xbd3f50d4	-0.046707943
197	0xbdcc49b0	-0.09974992
198	0xbe8947fa	-0.26812726
199	0xbe00e77d	-0.12588306
200	0x3d9d64da	0.076852515
201	0xbec0fc1a	-0.37692338
202	0xbc508ff1	-0.012729631
203	0xbdbed91c	-0.09318754
204	0xbea8e9e3	-0.3299094
205	0x3df5f755	0.120100655
206	0x3b4731d1	0.0030394683
207	0x3dc11065	0.09426955
208	0xbe08c76e	-0.13357326
209	0x3cfffa05	0.031247148
210	0xbd8e2acb	-0.06941756
211	0xbe09fd86	-0.13475618
212	0x3cc65621	0.024210991
213	0x3e16ba79	0.14719571
214	0x3d189bec	0.037258074
215	0xbd3a3e88	-0.04546979
216	0xbd661e1b	-0.056181055
217	0xbec72fa3	-0.3890353
218	0x3b0554d2	0.0020344746
219	0xbe470724	-0.19436318
220	0xbe091474	-0.13386708
221	0xbea7e5bb	-0.32792458
222	0xbd6970e9	-0.056992445
223	0xbd5457b3	-0.05184145
224	0xbebfa26e	-0.37428612
225	0xbd882a3b	-0.0664868
226	0x3dd4ef1f	0.10397171
227	0x3de8dc4a	0.11370142
228	0xbd257bf3	-0.04040141
229	0xbaa47237	-0.0012546246
230	0xbcc9ae02	-0.024619106
231	0x3d255a05	0.040369052
232	0x3e5c3835	0.21505816
233	0x3e14df8d	0.14538403
234	0x3db708a9	0.08937199
235	0xbdada7bf	-0.08479261
236	0xbc94caef	-0.018163173
237	0x3ea5c0fe	0.32373804
238	0x3d8df89b	0.06932183
239	0xbe8483fe	-0.25881952
240	0x3e86d55f	0.26334664
241	0x3dbfe76c	0.09370312
242	0xbe37fde6	-0.17967948
243	0x3d221735	0.039572913
244	0xbce0ddc8	-0.027449504
245	0x3df4a1e3	0.1194494
246	0x3d60f8d5	0.054924805
247	0x3e368c45	0.17826946
248	0xbd6a89d1	-0.05726034
249	0xbd99885e	-0.07496713
250	0xbcb91ebc	-0.022597663
251	0x3e1de1a7	0.15418111
252	0x3b2879e9	0.002570743
253	0xbe49f09d	-0.19720693
254	0xbdf5dca9	-0.12004978
255	0xbe1b8d68	-0.15190661

3.bias f4 [16]
0	0x3ddc34b7	0.10752242
1	0x3d8ebb3e	0.06969307
2	0x3c95d61d	0.018290574
3	0x3e64c013	0.22338895
4	0xbd96044f	-0.073250405
5	0xbd38e91b	-0.04514418
6	0xbdcff68f	-0.10154449
7	0xbe0515c8	-0.1299659
8	0x3db3ade7	0.087734036
9	0x3d052c41	0.032512907
10	0xbc845bd4	-0.016157068
11	0x3d73388e	0.059380107
12	0x3d401305	0.04689314
13	0xbd6dbf0e	-0.058043532
14	0xbba6b63d	-0.0050876425
15	0xbdcb731e	-0.09934066

7.weight f4 [120, 400]
0	0x3c48466b	0.01222382
1	0xbd021bbf	-0.031764742
2	0x3cc8b086	0.024498235
3	0xbcdc89bc	-0.026921146
4	0xbd5c039b	-0.053714376
5	0xbd078882	-0.03308917
6	0x3cb03c27	0.021513058
7	0x3d15f5e2	0.036611445
8	0x3d145e12	0.036222525
9	0xbcc65a6f	-0.024213044
10	0x3df0d703	0.1175976
11	0x3cb2d913	0.021832025
12	0xbc9498c9	-0.01813926
13	0x3c9bafe9	0.019004779
14	0x3dd7f346	0.105444476
15	0x3dd19637	0.10233729
16	0xbcff0b6f	-0.031133382
17	0xbcbbd826	-0.022930216
18	0x3d30619b	0.043061834
19	0x3c1a8a0b	0.009432326
20	0x3df5fee2	0.12011506
21	0xbae931f4	-0.0017791376
22	0x3c3ee95c	0.011652317
23	0x3b904929	0.0044032526
24	0xbc6e4f40	-0.014545262
25	0x3d8178bc	0.063218564
26	0xbca23ec1	-0.019805314
27	0x3e81c0f3	0.2534252
28	0xbdd92d98	-0.106043994
29	0x3cdf8c67	0.027288629
30	0x3d065f8b	0.03280596
31	0xbd94b0e2	-0.072603
32	0x3d45770b	0.04820923
33	0xbe0f5c78	-0.14000118
34	0xbd6ac83c	-0.057319865
35	0x3cc6652d	0.024218166
36	0xbd9384bc	-0.072030514
37	0x3dca1393	0.09867015
38	0xbbbb283d	-0.005711584
39	0xbcf1e011	-0.029525789
40	0xbd1b1680	-0.037863255
41	0xbd40d322	-0.047076352
42	0x3dbde52e	0.09272228
43	0x3d759c4a	0.059963502
44	0x3d9cd571	0.07657898
45	0xbd9852b3	-0.074376486
46	0x3c4e8508	0.012604959
47	0x3e4d7c93	0.20067053
48	0x3d0bcbd6	0.03412994
49	0xbd42bdd4	-0.047544315
50	0x3e09de30	0.13463664
51	0x3d815c2c	0.063164085
52	0xbe1bf285	-0.15229233
53	0x3dbf1559	0.093302436
54	0xbd45faea	-0.048334993
55	0x3e23bf74	0.15991002
56	0x3d9b1e58	0.07574147
57	0xbd5cc3c8	-0.05389765
58	0xbdbb3208	-0.09140402
59	0xbcbe010e	-0.023193862
60	0x3dfedda4	0.12444618
61	0xbd27e382	-0.040988453
62	0xbd57a0c2	-0.052643545
63	0xbde6bd2f	-0.11266553
64	0x3db24527	0.08704596
65	0xbc3d90b4	-0.011570144
66	0x3d02c762	0.031928428
67	0x3cafa5a9	0.021441298
68	0xbd6a5dc1	-0.057218317
69	0x3e0cf4f6	0.1376532
70	0x3e3033f8	0.17207325
71	0x3dbf0b5d	0.09328339
72	0xbd16a181	-0.036775116
73	0xbda98580	-0.08277416
74	0x3d88db8d	0.06682501
75	0xbcef35f3	-0.02920053
76	0xbd3f1078	-0.046646565
77	0xbced7e61	-0.028990926
78	0x3d1c9ce8	0.038235575
79	0x3d59d6ce	0.05318337
80	0xbe26315f	-0.16229771
81	0xbcef2f12	-0.02919725
82	0xbd225398	-0.039630502
83	0xbc8b60d6	-0.017013948
84	0x3d846bcd	0.06465874
85	0xbcac6703	-0.021045214
86	0x3b07ec85	0.0020740342
87	0x3cc7f806	0.024410259
88	0xbd64787b	-0.05577896
89	0x3db564cc	0.08857116
90	0x3cba2441	0.022722365
91	0x39d0d46c	0.00039831118
92	0x3d6e268d	0.058142234
93	0xbd079e15	-0.033109743
94	0x3cd5db23	0.02610547
95	0x3d826899	0.06367607
96	0xbc7f6cbf	-0.015589892
97	0xbc5b09f0	-0.0133690685
98	0xbdb9a7bb	-0.09065195
99	0xbd4f89a1	-0.050668363
100	0xbd7253a1	-0.059161786
101	0xbd0e020b	-0.034669917
102	0xbd8bd38e	-0.0682746
103	0xbd1af423	-0.037830483
104	0xbdccdcab	-0.100030266
105	0x3c90b63d	0.017665023
106	0xbc8d14b7	-0.017221792
107	0xbd08ce19	-0.033399675
108	0x3c0b3e8a	0.008498797
109	0x3c127aba	0.008940393
110	0xbc77f1eb	-0.015133361
111	0x3d44d4cd	0.048054505
112	0xbcefce9a	-0.02927332
113	0x3d8c2ed6	0.06844871
114	0x3de161c4	0.110049754
115	0x3d86b26c	0.06577
116	0x3d2cc769	0.04218236
117	0xbd2ed4fe	-0.042683594
118	0x3b8b7709	0.0042561335
119	0x3da02f5d	0.07821534
120	0x3d20358f	0.039113577
121	0xbd2d5e6b	-0.042326372
122	0xbd613e52	-0.054991074
123	0x3c8d781c	0.017269187
124	0x3db28fbe	0.08718823
125	0xbc0018d8	-0.007818423
126	0x3ddfee37	0.10934108
127	0xbd14bc9a	-0.036312677
128	0x3e61ced1	0.2205155
129	0xbdd4d755	-0.10392634
130	0x3dd54aee	0.10414682
131	0x3d11c0ad	0.03558414
132	0xbe114167	-0.14185105
133	0x3c30a324	0.010781083
134	0x3db273ea	0.08713515
135	0x3d99a44c	0.0750204
136	0xbd8b4527	-0.06800299
137	0xbc671a2b	-0.01410536
138	0x3c8343dc	0.016023569
139	0xbe2e7032	-0.17034987
140	0x3c5ece81	0.013599039
141	0x3bef25ef	0.007298223
142	0x3d97d880	0.07414341
143	0x3e5de994	0.21671134
144	0xbe06b2cd	-0.13154145
145	0xbc9faf21	-0.019492688
146	0xbd908f61	-0.07058597
147	0x3e97c1c2	0.29640013
148	0x3d175b96	0.036952578
149	0xbb1c8a27	-0.0023886056
150	0x3d0ca76b	0.03433935
151	0xbe1f272e	-0.1554229
152	0x3cbcefb0	0.02306351
153	0x3d820b8f	0.06349861
154	0xbd768247	-0.060182836
155	0x3d0e4e7a	0.03474281
156	0x3d554f71	0.052077714
157	0x3d8880f4	0.06665221
158	0x3ea8a21a	0.32936174
159	0x3e643f3d	0.22289748
160	0x3d77226d	0.060335565
161	0xbe459534	-0.19295198
162	0x3d037b37	0.03209993
163	0x3dc9b326	0.09848623
164	0xbce124a7	-0.027483298
165	0x3da32de7	0.079677396
166	0xbd6aee65	-0.057356257
167	0x3db1bf0c	0.086790174
168	0x3e70bac8	0.23508751
169	0xbe26a7f1	-0.16275002
170	0xbb98bd86	-0.004661265
171	0x3dbaf35c	0.09128448
172	0x3e97cf30	0.2965026
173	0x3b48b8eb	0.0030627798
174	0x3d415c45	0.047207136
175	0x3c182490	0.009286061
176	0xbb2427f1	-0.002504822
177	0x3cf23777	0.029567463
178	0x3e02bf04	0.12768179
179	0x3b871e16	0.0041234596
180	0xbd29f39d	-0.041492093
181	0x3d168ddb	0.036756378
182	0xbdb98ed0	-0.090604424
183	0xbe06f317	-0.13178669
184	0x3c0b999a	0.008520508
185	0x3ccff1ba	0.025383819
186	0xbca50c0b	-0.020147344
187	0xbb2516f6	-0.0025190688
188	0xbd991249	-0.07474191
189	0x3ad4dfe1	0.0016241038
190	0xbc0e7838	-0.008695655
191	0xbd09f9dd	-0.033685554
192	0x3daddce0	0.08489394
193	0x3c89b88b	0.01681163
194	0x3d26db01	0.040736202
195	0xbd817b5b	-0.06322356
196	0x3c728afe	0.014803646
197	0x3e55fedc	0.20898002
198	0x3d182d50	0.03715259
199	0x3d2550fe	0.040360443
200	0x3cc57ea1	0.024108233
201	0x39690854	0.00022223714
202	0x3d8c31ca	0.06845434
203	0xbe2eb7a2	-0.17062238
204	0x3da32949	0.07966859
205	0x3d64ccc2	0.055859335
206	0x3e1973a4	0.1498552
207	0xbc94ea16	-0.018178027
208	0xbe2bf083	-0.16790967
209	0x3d2152d7	0.039385643
210	0xbd3b9f94	-0.045806482
211	0x3d864b5f	0.06557345
212	0x3be87ef4	0.007095212
213	0xbe3ecc09	-0.1863252
214	0x3950134f	0.00019843619
215	0xbcd9a619	-0.02656846
216	0x3df03ef9	0.11730761
217	0x3c99e066	0.01878376
218	0xbce9429d	-0.028474147
219	0x3d580206	0.052736305
220	0xbe205780	-0.15658379
221	0x3de428de	0.11140607
222	0x3dc56269	0.09637911
223	0xbdd1c74a	-0.102430895
224	0x3d9babf4	0.07601157
225	0xbdd92e91	-0.10604585
226	0xbc038311	-0.008026854
227	0x3c25791b	0.010099675
228	0x3cc11d36	0.0235735
229	0xbd531608	-0.051534683
230	0xbdb3646c	-0.08759388
231	0x3c9338a4	0.017971344
232	0x3c65a740	0.014016926
233	0x3c5accc3	0.013354483
234	0xbd2d167c	-0.04225777
235	0x3cc474a0	0.023981392
236	0x3d3b030c	0.045657203
237	0xbbe965a9	-0.0071227145
238	0xbd5cd3f1	-0.05391306
239	0x3cf5a8ed	0.029987777
240	0xbd0b8829	-0.0340654
241	0x3c6a00ea	0.0142824445
242	0xbc892940	-0.016743302
243	0x3d9157f3	0.07096853
244	0x3dbfc22b	0.093632065
245	0xbbe3290c	-0.0069323834
246	0x3ab4d126	0.0013795241
247	0x3d182076	0.037140332
248	0x3d098304	0.03357221
249	0x3ac7aba5	0.0015233649
250	0xbce28147	-0.027649535
251	0x3d7dc598	0.06195602
252	0xbde371e4	-0.11105707
253	0x3e2ff287	0.1718236
254	0xb9f2ed24	-0.0004633452
255	0x3d966d34	0.073450476

7.bias f4 [120]
0	0xbd002a26	-0.031290196
1	0x3db764c4	0.089547664
2	0xbd6954d7	-0.056965675
3	0xbcc0b99b	-0.023526004
4	0x3c82e787	0.015979541
5	0xbd4b167b	-0.049581986
6	0xbd155810	-0.036460936
7	0x3b849510	0.00404609
8	0x3c48f88e	0.012266291
9	0xbd436b33	-0.047709655
10	0x3e0147fb	0.12625115
11	0x3e713f8d	0.23559399
12	0xbc9d41e4	-0.019196458
13	0x3d68123a	0.056658007
14	0x3d818932	0.06324996
15	0xbcf590c7	-0.029976262
16	0x3daf9867	0.0857399
17	0x3d95e950	0.073198915
18	0xbd8ec159	-0.06970472
19	0x3d0239d5	0.031793434
20	0x3c226171	0.009910927
21	0xbd28dde2	-0.04122723
22	0x3dd7a6c4	0.10529855
23	0x3e16cd52	0.14726761
24	0x3d11cf78	0.03559825
25	0x3e39a547	0.18129455
26	0x3dace0cf	0.08441316
27	0xbd88f26e	-0.06686865
28	0xbc342ffe	-0.01099777
29	0x3d6d4781	0.05792952
30	0xbbb29b90	-0.0054506734
31	0x3d25e615	0.040502626
32	0x3dc0ad52	0.09408058
33	0x3cdd03b6	0.026979309
34	0xbcdce406	-0.026964199
35	0x3ca40892	0.020023618
36	0xbc88f9fa	-0.01672076
37	0x3c5f574d	0.013631654
38	0x3d7e8b7d	0.062144745
39	0x3d991f8e	0.07476722
40	0x3d96f20a	0.07370384
41	0xbc2a23ad	-0.010384482
42	0x3bf047ba	0.007332769
43	0xbd2c4194	-0.042054728
44	0x3d2554c6	0.04036405
45	0x3ddb4618	0.10706729
46	0xbc939b60	-0.018018425
47	0x3c00574f	0.007833316
48	0xbd89ea90	-0.06734192
49	0xbc1d7df4	-0.009612549
50	0x3d757d69	0.059934054
51	0x3c304e32	0.010760831
52	0x3da73986	0.081652686
53	0xbd2a5dc5	-0.04159333
54	0x3c225458	0.009907804
55	0xbd81091c	-0.063005656
56	0xbd827697	-0.063702755
57	0xbc56c39e	-0.013108162
58	0x3dabcec8	0.0838905
59	0x3d587cac	0.05285327
60	0xbc7dfb2c	-0.015501779
61	0x3d9080ee	0.070558414
62	0x3da6a4e5	0.0813692
63	0x3d33566f	0.0437836
64	0x3e0f0e97	0.1397041
65	0xbd565753	-0.052329373
66	0x3dd44ccc	0.1036621
67	0x3ca2070e	0.019778755
68	0x3e0d914a	0.13824955
69	0x3c2c72ce	0.010525418
70	0xbd6bcfe1	-0.057571296
71	0xbe003dca	-0.1252357
72	0x3de39c26	0.11113767
73	0x3dbc97f0	0.09208667
74	0xbc3227b9	-0.010873728
75	0x3e3b7851	0.18307616
76	0x3dbb84cb	0.091561876
77	0xbc0dc6be	-0.008653341
78	0xbc692cd0	-0.014231876
79	0xbd092353	-0.033480953
80	0xbcd3fbb5	-0.02587686
81	0x3ddea404	0.10871127
82	0x3c17f416	0.009274503
83	0x3be6e7ca	0.0070466744
84	0xbd1c1e3c	-0.03811477
85	0x3e160248	0.14649308
86	0x3d936ae0	0.07198119
87	0xbaf8086a	-0.0018923406
88	0xbd2a300a	-0.04154972
89	0xbcbcd6b4	-0.023051597
90	0x3d61ffb0	0.055175483
91	0x3d72ea84	0.059305683
92	0x3e23fb5b	0.16013853
93	0x3c873dc2	0.01650894
94	0x3be579c1	0.0070030396
95	0x3ba75adf	0.005107268
96	0xbd8a0c4f	-0.06740629
97	0x3e039167	0.12848435
98	0x3c98f476	0.018671256
99	0x3d53a5c8	0.051671773
100	0xbdae1e6c	-0.08501896
101	0x3d44ba62	0.04802931
102	0x3d5aa6fa	0.053381898
103	0xbc1f298b	-0.009714494
104	0x3d3829e3	0.04496182
105	0x3dd4e1ea	0.10394652
106	0xbcea6812	-0.028614078
107	0xbd8a9397	-0.06766432
108	0xbad40c55	-0.0016177992
109	0x3dc61ed2	0.09673847
110	0xbb82e484	-0.0039945263
111	0x3df351e0	0.11880851
112	0x3c80220c	0.015641235
113	0x3d0c2d3d	0.03422283
114	0x3ccd0cfe	0.02503061
115	0xbd45c931	-0.048287574
116	0x3d35707c	0.044296727
117	0xbc5402b3	-0.012940097
118	0x3d9efa20	0.07762551
119	0x3d69f7ad	0.057120968

9.weight f4 [84, 120]
0	0x3e25d5d9	0.16194858
1	0xbc3e6baf	-0.011622353
2	0x3d95db9a	0.07317276
3	0xbd3b6fde	-0.04576098
4	0x3c8abf8d	0.016937042
5	0x3cbfe53c	0.023424737
6	0x3d07cdd1	0.033155266
7	0xbd854761	-0.06507755
8	0x3ca4079b	0.020023158
9	0xbd0098df	-0.03139579
10	0x3bc92ad9	0.006139141
11	0x3d7156f4	0.058920816
12	0xbe829d1c	-0.2551049
13	0x3de54054	0.1119391
14	0x3d048b45	0.03235938
15	0x3c55c490	0.013047352
16	0x3d90c322	0.07068469
17	0x3d894423	0.06702449
18	0x3ddc81a3	0.10766914
19	0xbd356a74	-0.044290975
20	0x3ca0b9a4	0.01961977
21	0xba322500	-0.00067956746
22	0xbdbb5252	-0.09146561
23	0xbe51987e	-0.20468327
24	0x3e4c3662	0.1994262
25	0x3bc77964	0.006087469
26	0xbdddb022	-0.1082461
27	0x3d52e91c	0.05149184
28	0x3dc10c69	0.09426195
29	0x3d91d286	0.07120232
30	0xbe0f80ae	-0.14013931
31	0x3d970218	0.07373446
32	0x3d96d72b	0.07365259
33	0xbe61101e	-0.21978804
34	0xba33539a	-0.0006840766
35	0xbdc0ce98	-0.09414405
36	0xbc835d24	-0.016035624
37	0xbdfc9176	-0.12332432
38	0x3d76c09c	0.06024228
39	0x3d632899	0.05545864
40	0xbd843b5b	-0.06456634
41	0xbe088d33	-0.13335113
42	0x3da35295	0.07974736
43	0xbd9becd6	-0.07613532
44	0xbd628880	-0.055305958
45	0x3dabcde7	0.08388882
46	0xbd93bb46	-0.07213454
47	0x3ded065f	0.11573481
48	0x3deb89be	0.115008816
49	0xbd2f8b85	-0.042857666
50	0xbdd4f64d	-0.10398541
51	0x3ddf9314	0.10916725
52	0xbdcd982e	-0.100387916
53	0x3be2d059	0.0069218096
54	0xbd566f16	-0.052352034
55	0xbe33220e	-0.1749346
56	0x3da3af18	0.07992381
57	0xbd625111	-0.055253092
58	0x3ddf54bf	0.10904836
59	0x3dc78c73	0.097435854
60	0xbdee0a28	-0.11623031
61	0x3c5706d5	0.0131241875
62	0xbe0256d4	-0.12728435
63	0xbdf15668	-0.11784059
64	0xbe64cdf2	-0.22344187
65	0xbdb64e89	-0.08901698
66	0xbd968a92	-0.07350649
67	0x3e12e803	0.14346318
68	0xbd05f41c	-0.032703504
69	0xbdb82d9d	-0.08993075
70	0xbbabce30	-0.0052430853
71	0xbe0ee0b1	-0.139529
72	0xbda1bb0d	-0.07897005
73	0xbd74f1f9	-0.059801076
74	0xbe065710	-0.13119149
75	0x3e052166	0.13001022
76	0x3e0e7f4a	0.13915744
77	0xbe77869f	-0.24172448
78	0xbc16f43d	-0.009213504
79	0x3dde77a5	0.10862664
80	0x3e41d0ed	0.18927355
81	0xbb97983c	-0.004626302
82	0xbda15a1f	-0.07878517
83	0xbdde106f	-0.10842978
84	0x3d6cbb95	0.05779608
85	0xbe3d9749	-0.18514742
86	0x3ded1e92	0.115780964
87	0x3e60db63	0.2195869
88	0xbc155afe	-0.0091159325
89	0xbd0dd83f	-0.034630056
90	0x3deaeaa4	0.114705354
91	0xbd9a5245	-0.07535223
92	0xbdea5a21	-0.11442972
93	0xbd83cec9	-0.064359255
94	0xbd209d63	-0.039212596
95	0xbd6c6d6f	-0.05772155
96	0xbd647cb4	-0.05578299
97	0xbd3e2c55	-0.046428997
98	0xbda7c81c	-0.08192465
99	0xbdaecfee	-0.08535753
100	0x3d88495d	0.06654618
101	0x3d881b1f	0.06645798
102	0x3d8a158f	0.06742393
103	0xbd283e25	-0.04107489
104	0x3d9dbeb8	0.07702392
105	0xbd96ee88	-0.07369715
106	0x3d07ea0e	0.033182196
107	0x3d53fa39	0.051752303
108	0xbbe3a1a3	-0.006946759
109	0x3e420922	0.18948796
110	0x3c970b45	0.01843799
111	0x3d92448e	0.07141982
112	0xbcb6a5a9	-0.02229579
113	0xbd049886	-0.03237202
114	0x3e37c6c4	0.17946917
115	0xbc002a75	-0.007822623
116	0x3cb86b79	0.022512184
117	0x3d8fc727	0.07020407
118	0xbe802940	-0.2503147
119	0xbe45348f	-0.19258331
120	0xbd9a7cf4	-0.07543364
121	0x3b81f28f	0.003965683
122	0xbd838536	-0.06421892
123	0xbb871360	-0.0041221827
124	0xbd9edd1f	-0.07757019
125	0x3d07c520	0.033146977
126	0xbd35d7d1	-0.04439527
127	0x3d93fc5e	0.072258696
128	0x3c82fe26	0.015990328
129	0xbd1bf4a8	-0.03807512
130	0xbde8f748	-0.1137529
131	0xbde086da	-0.10963221
132	0x3bafbc07	0.005362991
133	0x3d577c2f	0.052608665
134	0xbd03bf07	-0.0321646
135	0xbd18222d	-0.037141968
136	0x3b22fe08	0.0024870653
137	0xbdecaa58	-0.11555928
138	0xbdab650e	-0.08368884
139	0xbc261145	-0.010135953
140	0x3cd48ee8	0.02594705
141	0x3c34c428	0.011033095
142	0x3d610512	0.054936476
143	0xbdae93a0	-0.08524251
144	0xbdc22c6b	-0.09481128
145	0xbdd28614	-0.102794796
146	0xbdb37c0c	-0.087638944
147	0x3cef733f	0.029229758
148	0xbc96e1d0	-0.018418223
149	0x3d78d622	0.060751088
150	0x3d296815	0.041359026
151	0xbdb4e3c5	-0.08832506
152	0x3c88ba62	0.016690437
153	0xbdcdc975	-0.100481905
154	0xbd6b7b65	-0.057490725
155	0x3cb7b99f	0.022427378
156	0xbd175327	-0.036944535
157	0xbd1da482	-0.038486965
158	0xbb8acbed	-0.0042357356
159	0xbd027e9c	-0.031859025
160	0x3c919a02	0.017773632
161	0xbbd114ac	-0.006380638
162	0xbda8dafa	-0.082448915
163	0x3ce3a924	0.027790613
164	0x3cffdc34	0.03123293
165	0xbc55f58f	-0.013059034
166	0xbd2ed9c0	-0.04268813
167	0x3c280973	0.010256159
168	0x3c921897	0.017833991
169	0xbd8f29e8	-0.06990415
170	0xbd5bcdac	-0.05366294
171	0xbd8c878c	-0.06861791
172	0x3d889ad3	0.066701554
173	0xbd703105	-0.0586405
174	0x3d841d24	0.06450871
175	0x3d2775b7	0.040883746
176	0xbd14cb9d	-0.036326993
177	0x3d490379	0.049075577
178	0x3d0e7b14	0.034785345
179	0xbd26e5da	-0.040746547
180	0x3c66db71	0.014090405
181	0xbd90f6e3	-0.0707834
182	0xbd593e9c	-0.053038225
183	0xbc1f2425	-0.009713207
184	0xbe096502	-0.13417438
185	0xbc1168e4	-0.0088751055
186	0xbb4f8bff	-0.0031669138
187	0x3c74d8f9	0.014944308
188	0xbdf7d686	-0.12101464
189	0x3d91a9f7	0.07112496
190	0xbb4c0da0	-0.003113605
191	0x3d8e0eb7	0.069364004
192	0xbdaf70f5	-0.08566467
193	0xbda5c030	-0.080932975
194	0xbdbdfc8a	-0.09276684
195	0xbc9574fb	-0.018244257
196	0xbd50a5c7	-0.050939348
197	0x3ccfcfea	0.025367696
198	0xbcdbdfec	-0.026840173
199	0xbcd30192	-0.025757585
200	0x3bbd671e	0.005780115
201	0x3d08ad54	0.033368424
202	0xbd1fabd6	-0.038982235
203	0xbdead8ec	-0.11467156
204	0xbc965ab4	-0.018353797
205	0x3d2568f1	0.040383283
206	0x3c493e8c	0.012282979
207	0xbd11079b	-0.035407644
208	0xbccc178e	-0.024913576
209	0xbc132f88	-0.0089835
210	0xbd378e16	-0.044813238
211	0xbdf178d2	-0.11790623
212	0xbd432f3e	-0.047652476
213	0xbd7a71aa	-0.061143555
214	0xbdaf8bb7	-0.0857157
215	0xbd966966	-0.07344322
216	0xbdc05475	-0.09391109
217	0xbcedf8ab	-0.029049238
218	0xbd966d2d	-0.073450424
219	0xbd381813	-0.044944834
220	0x3c704192	0.014664071
221	0x3c380fc9	0.011234232
222	0xbcb3bfc1	-0.021942021
223	0x3ce7a020	0.028274596
224	0xbc6be94f	-0.014398887
225	0xbde37012	-0.1110536
226	0x3d8d1e48	0.06890541
227	0xbd0a9ad3	-0.033839058
228	0xbca59ee2	-0.020217363
229	0xbdb41256	-0.0879256
230	0x3cc12074	0.023575045
231	0xbd9e1b9c	-0.0772011
232	0x3d521382	0.051288135
233	0xbc6b5d86	-0.014365559
234	0xbbf3c53b	-0.007439283
235	0xbde9d332	-0.114172354
236	0xbdc949d2	-0.09828533
237	0xbc2aee5f	-0.010432809
238	0xbdaeee0b	-0.08541497
239	0xbd14a90c	-0.03629403
240	0xbd14724e	-0.036241822
241	0xbd5e6cd6	-0.054303013
242	0xbd38305a	-0.044967987
243	0xbd630e2a	-0.05543343
244	0x3d564f3e	0.052321665
245	0x3d1151dc	0.035478458
246	0xbcaaa458	-0.020830318
247	0x3d8bd9c0	0.06828642
248	0x3cd5449d	0.026033694
249	0x3d430690	0.04761368
250	0xbcc3dcd3	-0.023909008
251	0x3d42b09b	0.047531705
252	0xbd761eb7	-0.060087886
253	0x3d7e1e8f	0.06204086
254	0xbd97c1c5	-0.074100055
255	0x3d76034c	0.060061738

9.bias f4 [84]
0	0x3dab4a2c	0.083637565
1	0xbdc64a8a	-0.09682186
2	0xbd0185b1	-0.03162164
3	0xbd1053e1	-0.035236243
4	0xbbd6fe89	-0.0065611047
5	0x3d15810f	0.036500033
6	0xbe098ecf	-0.13433383
7	0xbd2fefc7	-0.04295328
8	0x3dce4a41	0.100727566
9	0x3defc8fe	0.11708258
10	0x3c19e183	0.009392145
11	0x3d79c2ad	0.060976673
12	0x3d071a60	0.032984138
13	0xbde58923	-0.112077974
14	0xbd83cc99	-0.06435508
15	0x3d3a711a	0.04551802
16	0xbd351478	-0.044208974
17	0xbd35ebac	-0.044414207
18	0x3dd72aca	0.10506208
19	0xbd565a6f	-0.052332338
20	0xbd544810	-0.051826537
21	0x3d8bc00f	0.06823742
22	0x3dbd4ac8	0.09242779
23	0x3cf70c39	0.030157195
24	0x3d6c57ee	0.057701044
25	0x3bcdae4a	0.0062768804
26	0xbd5614be	-0.052265875
27	0x3c826ac1	0.015920045
28	0x3df7e3ac	0.12103972
29	0x3d8ed591	0.06974328
30	0x3d61d213	0.055131983
31	0x3db962cd	0.09052048
32	0xbd3dfda4	-0.04638447
33	0xbc788edd	-0.01517078
34	0x3da12edf	0.07870268
35	0xbd898e90	-0.06716645
36	0xbddf09dd	-0.10890553
37	0x3c095e52	0.008384304
38	0x3e358ec5	0.17730244
39	0x3cb68357	0.022279425
40	0x3dc01ac7	0.093801074
41	0xbda0e496	-0.07856099
42	0xbd5191e5	-0.051164526
43	0x3e073ad4	0.13206035
44	0xbdeafe66	-0.11474304
45	0x3e043885	0.12912185
46	0x3d0bb0d7	0.034104194
47	0xbd178bd4	-0.036998585
48	0x3e11f155	0.14252217
49	0x3e051ca8	0.12999213
50	0x3dd26c3c	0.1027455
51	0xbd641f47	-0.05569389
52	0xbdb806a0	-0.089856386
53	0x3db83b4e	0.089956865
54	0x3d87824c	0.06616649
55	0xbd8a63e1	-0.06757332
56	0xbc9c8db9	-0.019110547
57	0xbddd41d8	-0.10803574
58	0x3e0a6d1e	0.13518187
59	0x3d784cbf	0.060620066
60	0x3e1ffb07	0.15623103
61	0x3dfbaf35	0.122892775
62	0xbdc40266	-0.0957077
63	0x3d62edab	0.05540244
64	0xbdd9b218	-0.10629672
65	0x3da1c679	0.07899184
66	0xbda861d3	-0.082217835
67	0xbda33f27	-0.0797103
68	0x3c3814d8	0.011235438
69	0xbda24805	-0.07923893
70	0x3d896a30	0.06709707
71	0xbddedac1	-0.10881568
72	0xbd2b54a2	-0.04182876
73	0x3e1a2891	0.15054537
74	0x3d752ab5	0.05985518
75	0x3e18b395	0.14912255
76	0x3e194995	0.14969476
77	0x3c972600	0.018450737
78	0x3e15535c	0.1458258
79	0xbcee1f4a	-0.029067654
80	0x3c0a4540	0.008439362
81	0x3df947a3	0.12171867
82	0xbdb1a6f3	-0.08674421
83	0x3e625e4f	0.22106288

11.weight f4 [10, 84]
0	0xbdabe1b9	-0.083926626
1	0xbc9e7e48	-0.019347325
2	0xbd4b0511	-0.04956538
3	0xbe3c6bac	-0.18400449
4	0xbe3213b5	-0.1739033
5	0xbdd5c268	-0.10437471
6	0xbd5c69b2	-0.053811736
7	0x3b65605a	0.0035000057
8	0x3d0a0e32	0.033704944
9	0x3dac6938	0.084185064
10	0x3e135366	0.14387283
11	0x3d4f288d	0.05057578
12	0x3e526719	0.20547141
13	0x3cba350d	0.022730375
14	0xbd7f81af	-0.062379535
15	0x3e17e9e2	0.14835313
16	0x3cca1120	0.024666369
17	0xbbaa352c	-0.005194327
18	0xbe04c865	-0.1296707
19	0xbd534d92	-0.05158765
20	0xbdf2086f	-0.11818015
21	0x3da87e5f	0.082272284
22	0x3e45dc30	0.19322276
23	0xbdeddfcc	-0.116149515
24	0x3dd6f08f	0.10495102
25	0xbe354a1a	-0.17704049
26	0x3d02bbcf	0.03191739
27	0x3ca74612	0.020419154
28	0x3e013c76	0.1262072
29	0xbd697528	-0.056996495
30	0x3d340584	0.043950573
31	0x3e10b8b6	0.14132962
32	0xbd68a870	-0.05680126
33	0xbbb68064	-0.0055695046
34	0xbe224412	-0.1584628
35	0x3e2b31e4	0.1671825
36	0xbd5ba288	-0.0536218
37	0xbd521896	-0.05129298
38	0xbe32f980	-0.17477989
39	0x3d0bcd6b	0.03413145
40	0xbcc4491e	-0.023960646
41	0xbdf84608	-0.121227324
42	0xbe1f6f5b	-0.15569822
43	0x3b13b7f5	0.0022540067
44	0xbbe50ac4	-0.0069898088
45	0xbdbcb1e4	-0.092136174
46	0xbe2cc5c3	-0.16872315
47	0x3d9cb3be	0.076514706
48	0x3d8fee3a	0.0702786
49	0x3d918c6f	0.07106864
50	0x3cd89ad7	0.02644102
51	0xbc8f366f	-0.01748201
52	0xbde45971	-0.11149872
53	0x3d4809aa	0.04883734
54	0x3d8d47b7	0.06898444
55	0xbd999ef6	-0.075010225
56	0x3d4224d2	0.047398396
57	0xbd7a05fb	-0.06104086
58	0x3cc63862	0.024196807
59	0x3e436637	0.1908196
60	0xbd66be17	-0.056333628
61	0xbd98a1a6	-0.07452707
62	0xbdd08d44	-0.10183194
63	0x3d29ecb3	0.0414855
64	0xbc3299ab	-0.010900895
65	0xbe830fbb	-0.2559794
66	0x3dc28e98	0.09499854
67	0xbd3595b4	-0.04433222
68	0xbdbd5120	-0.09243989
69	0x3db89575	0.09012882
70	0xbdf6adec	-0.12044892
71	0xbd826d6b	-0.06368526
72	0xbdb25597	-0.08707731
73	0x3df6727f	0.12033557
74	0xbd5df594	-0.05418928
75	0x3dca2e5a	0.09872122
76	0x3e0dd222	0.1384969
77	0xbcf69610	-0.030100852
78	0x3d4d358f	0.050099906
79	0x3e46d538	0.19417274
80	0xbd1d7d96	-0.038449846
81	0xbdb4f30c	-0.0883542
82	0xbb141528	-0.0022595618
83	0x3dffbd77	0.124873094
84	0xbdf61c1c	-0.1201708
85	0xbe1adceb	-0.15123336
86	0xbd3b8edb	-0.045790534
87	0x3cddd194	0.027077474
88	0x3dd1c852	0.10243286
89	0xbcf1e288	-0.029526964
90	0x3b9b31b6	0.0047361506
91	0x3c91701e	0.017753657
92	0xbe5d36cb	-0.21602933
93	0x3d2d8754	0.042365387
94	0xbe5f5a7c	-0.21811861
95	0x3e827c1b	0.2548531
96	0xbe51718e	-0.20453474
97	0x3d9daeb3	0.07699337
98	0x3d9c3533	0.076273344
99	0xbce7983b	-0.028270831
100	0xbd7569a8	-0.059915215
101	0xbdce1f1f	-0.1006453
102	0xbe19f41a	-0.15034524
103	0xbde14fba	-0.11001535
104	0x3e1a9674	0.15096456
105	0x3d7e958a	0.06215433
106	0xbe4f8467	-0.20265351
107	0xbe45df77	-0.19323526
108	0x3e6dee67	0.23235475
109	0x3dd78e1e	0.105251536
110	0x3ddaf685	0.10691551
111	0x3d0d9d36	0.034573756
112	0x3d641423	0.055683266
113	0xbe1dd318	-0.15412557
114	0x3db8b8a5	0.09019593
115	0xbe437471	-0.19087388
116	0x3d60e893	0.0549093
117	0xbcac407c	-0.021026842
118	0xbe6e2daa	-0.23259607
119	0x3c277a71	0.010222063
120	0xbc9f309c	-0.019432358
121	0x3dacc8f1	0.08436764
122	0xbe1187c1	-0.14211942
123	0x3e499ddd	0.19689126
124	0xbda156e2	-0.078779
125	0xbc768a15	-0.01504757
126	0xbdd96863	-0.10615613
127	0xbe16aa7b	-0.1471347
128	0x3d849b9c	0.06474993
129	0xbe85e19b	-0.26148686
130	0x3d992765	0.07478217
131	0x3cf81e54	0.0302879
132	0x3d9b3d0d	0.07580004
133	0xbe8dbaf6	-0.27681702
134	0xbd5dd26a	-0.054155745
135	0xbcf5f0cd	-0.03002205
136	0x3c740ce8	0.014895655
137	0xbcfa5ebd	-0.030562753
138	0xbe440bf9	-0.19145192
139	0x3d597eb0	0.053099334
140	0xbd39855e	-0.045293204
141	0xbe2bec26	-0.16789302
142	0x3e320f56	0.17388663
143	0x3cb9059e	0.022585686
144	0xbc67ac58	-0.014140211
145	0xbea7f363	-0.32802877
146	0xbdb175c7	-0.08665042
147	0x3dcbc3c0	0.09949446
148	0xbbb6254b	-0.005558645
149	0xbe893a78	-0.2680242
150	0x3d8ab386	0.06772523
151	0x3db6e0ff	0.08929633
152	0x3dce210c	0.10064897
153	0xbd01092d	-0.03150289
154	0x3adc2c3d	0.0016797852
155	0xbd928d2f	-0.07155835
156	0xbca89e74	-0.020583369
157	0xbd39b764	-0.04534091
158	0xbdb1740a	-0.08664711
159	0xbe6e794d	-0.2328846
160	0xbe26cc4d	-0.16288872
161	0xbe548bed	-0.20756502
162	0x3e3e6ae9	0.1859547
163	0x3dc4fde8	0.09618741
164	0x3e26d19b	0.16290896
165	0x3e0f93f5	0.14021285
166	0x3c1e9153	0.009678203
167	0x3e1132a7	0.14179479
168	0xbe359675	-0.17733176
169	0x3ab3e0d5	0.0013723621
170	0x3d99d5ec	0.075115055
171	0xbde4e64c	-0.11176738
172	0xbd249dd4	-0.04018958
173	0xbdf23b88	-0.11827761
174	0x3d1bef7c	0.038070187
175	0xbd9e55cc	-0.07731208
176	0xbdbf480b	-0.09339913
177	0x3e774067	0.24145661
178	0x3e3a3a11	0.18186213
179	0xbe9dc13c	-0.3081149
180	0xbca612b8	-0.020272598
181	0x3d922ffd	0.07138059
182	0xbded2c93	-0.115807675
183	0x3dda0fbf	0.106475346
184	0xbd84777e	-0.06468104
185	0x3dbc8956	0.09205882
186	0x3d3390dc	0.04383932
187	0xbdbff6e6	-0.09373264
188	0xbd2a51ee	-0.04158204
189	0x3e0a7f5d	0.13525148
190	0xbd7a6eaf	-0.061140712
191	0x3dd5c967	0.10438805
192	0x38a7dd56	8.0044076e-05
193	0x3dc2e838	0.095169485
194	0xbccc8686	-0.02496649
195	0xbe400833	-0.18753128
196	0xbdb8f29a	-0.090306476
197	0x3c22e5fa	0.009942526
198	0x3e3dcd2a	0.18535295
199	0xbcbf8500	-0.023378849
200	0xbd629dad	-0.055326153
201	0xbe1f5aad	-0.15561934
202	0xbe146fe5	-0.1449581
203	0xbe92786a	-0.28607494
204	0xbcbe039a	-0.023195077
205	0x3c8b2eec	0.016990148
206	0xbe0f7871	-0.14010789
207	0xbc054194	-0.008133311
208	0xbe6993d9	-0.22810306
209	0x3ce23451	0.027612837
210	0xbdd94f0b	-0.106107794
211	0x3d874cb8	0.0660643
212	0x3ca8b9f9	0.020596491
213	0x3e141e2b	0.14464633
214	0x3c264cf4	0.010150183
215	0xbdaee89b	-0.0854046
216	0x3dbdae2b	0.092617355
217	0x3dd6ef45	0.10494856
218	0x3d58a585	0.052892227
219	0x3c08da88	0.008352883
220	0x3d38ccca	0.045117177
221	0xbe654d7e	-0.22392842
222	0xbdd74b41	-0.105124004
223	0xbda86800	-0.082229614
224	0x3bcb7345	0.0062088096
225	0xbd90383b	-0.07041975
226	0xbde0e3c7	-0.10980945
227	0x3da435c1	0.08018065
228	0x3da65a13	0.08122649
229	0x3e0a2ab3	0.13492851
230	0x3caf298a	0.021382112
231	0x3d9e7e8d	0.077389814
232	0xbe4d39df	-0.20041607
233	0x3dede0fc	0.11615178
234	0x3d65e52c	0.05612676
235	0xbd8128bd	-0.06306598
236	0x3dcd0c0e	0.10012065
237	0xbda79db7	-0.081843786
238	0xbc484b32	-0.012224959
239	0xbc31823e	-0.010834275
240	0xbc534241	-0.012894214
241	0x3da10934	0.078630835
242	0x3d8dff20	0.06933427
243	0x3c4a9782	0.012365224
244	0x3db28711	0.08717168
245	0x3df5a68d	0.11994658
246	0x3dbb1937	0.09135669
247	0xbd10c3a7	-0.03534284
248	0x3e1a18e7	0.15048562
249	0x3ba05b8c	0.0048937257
250	0xbd88b2fd	-0.06674764
251	0xbda32d63	-0.07967641
252	0xbe914b98	-0.28377986
253	0xbd923072	-0.071381465
254	0xbdd068ee	-0.10176264
255	0x3beba7cc	0.007191634

11.bias f4 [10]
0	0x3cb13e94	0.021636285
1	0xbd8da4b7	-0.069161825
2	0x3d40a831	0.0470354
3	0xbd18cf17	-0.03730687
4	0xbc7b14b1	-0.015324757
5	0xbcf8492c	-0.030308329
6	0x3d335197	0.043778982
7	0x3dbe705b	0.09298774
8	0xbcaa6e3e	-0.02080452
9	0x3c6cf3de	0.014462439
